flinky.model (torch, 7038 bytes, 6 tensors)

fc1.weight f4 [24, 20]
0	0xbed7d74c	-0.42156446
1	0xbdbc948e	-0.09208022
2	0xbe8eff78	-0.27929282
3	0xbe17f8a0	-0.14840937
4	0xbe8df3d2	-0.27725083
5	0xbe68b9e8	-0.22727168
6	0xbd10f529	-0.035390053
7	0xbd7b3edf	-0.061339255
8	0xbd338531	-0.043828193
9	0x3dcaa53f	0.098947994
10	0x3dea3089	0.114350386
11	0xbe211aba	-0.15732852
12	0xbd097346	-0.0335572
13	0xbe9006ef	-0.2813029
14	0xbebe4c6d	-0.37167683
15	0xbea001a1	-0.31251243
16	0xbe483d55	-0.19554646
17	0xbdc2a7de	-0.095046744
18	0xbe59e5f8	-0.21279132
19	0xbe0aaa2a	-0.13541475
20	0xbeb94595	-0.361859
21	0x3cbc83c5	0.023012051
22	0x3e16e249	0.14734758
23	0x3df27f32	0.11840667
24	0xbe95794a	-0.291941
25	0xbeb4018a	-0.35157424
26	0xbf23d671	-0.63999087
27	0xbed30b24	-0.41219437
28	0xbf4e74dc	-0.80647063
29	0xbee25efd	-0.44213095
30	0xbd6fe283	-0.058565628
31	0x3e6b855b	0.2300009
32	0x3e791ddb	0.24327795
33	0x3dcd2b19	0.10017986
34	0xbeea23ea	-0.45730525
35	0xbf519d77	-0.818809
36	0xbfcfe989	-1.6243144
37	0xbea367d7	-0.3191516
38	0xbe6f111d	-0.23346372
39	0xbf45d216	-0.7727369
40	0x3fcf0229	1.6172534
41	0xbd46ad52	-0.048505135
42	0x3f1aef4d	0.60521394
43	0x3ef9232f	0.48659655
44	0xbe2dae19	-0.16960944
45	0x3ec8611a	0.39136583
46	0x3e42b614	0.1901477
47	0x3e1ab028	0.15106261
48	0x3ecf0ed6	0.40441006
49	0x3ed9da5a	0.42549402
50	0x3e8ca7a6	0.27471656
51	0x3f7b1fc7	0.98095363
52	0x3f386d65	0.7204192
53	0x3f6235e6	0.8836349
54	0x3f7bdbc9	0.9838224
55	0x3f68a5ef	0.90878195
56	0x3f3676e0	0.7127514
57	0x3f6a327c	0.91483283
58	0x3f03016c	0.51174045
59	0x3eef8c29	0.4678662
60	0xbdefc148	-0.11706787
61	0x3e12e48e	0.14344999
62	0xbd8837d2	-0.06651272
63	0xbd31d9c0	-0.043420553
64	0xbc34b33d	-0.011029062
65	0xbf42953f	-0.7600898
66	0xbed2ca17	-0.41169807
67	0xbf23da50	-0.64004993
68	0xbdb2b7ed	-0.08726487
69	0x3e170fd7	0.14752136
70	0xbe37d1a6	-0.17951068
71	0xbe4587ae	-0.19290039
72	0xbf045441	-0.5169106
73	0xbeca1a4e	-0.39473194
74	0xbed5afe7	-0.41735765
75	0xbd4f27a2	-0.050574906
76	0xbf28fe1e	-0.6601275
77	0x3d933572	0.07187928
78	0x3ecee988	0.40412545
79	0x3f7293c6	0.94756734
80	0x3f38b016	0.72143686
81	0xbdb512cb	-0.08841475
82	0x3dcf2719	0.10114879
83	0xbcbf284e	-0.023334648
84	0x3e13a87c	0.1441974
85	0xbd1efa3a	-0.038812853
86	0xbe05c51f	-0.13063477
87	0xbecdaa1f	-0.40168855
88	0xbec39753	-0.3820139
89	0xbf0ac670	-0.5420904
90	0x3e874d11	0.26425985
91	0x3c2d6da0	0.010585219
92	0xbe65f285	-0.22455795
93	0xbeaf9c04	-0.34298718
94	0xbedbaab4	-0.42903674
95	0xbed23e09	-0.41062954
96	0xbf0ffba7	-0.56243366
97	0xbf9138e4	-1.1345487
98	0xbf8bc7d3	-1.0920357
99	0xbfdfc5cf	-1.7482241
100	0xbf0e3f73	-0.55565566
101	0x3da8636c	0.08222088
102	0xbd9b5b42	-0.075857654
103	0x3e4624b0	0.19349933
104	0x3e4a5cc8	0.19761956
105	0xbe1e92b1	-0.15485646
106	0xbecab233	-0.3958908
107	0xbe9efbae	-0.3105139
108	0xbf0aac8c	-0.54169536
109	0xbf67b922	-0.90516865
110	0xbee5feb1	-0.44920877
111	0x3dda8832	0.106705084
112	0xbe4e0ea3	-0.20122771
113	0xbee7ad73	-0.4524952
114	0xbed85bc3	-0.4225751
115	0xbe7af3e5	-0.24507101
116	0xbed1c888	-0.40973306
117	0xbf8b4fcd	-1.0883728
118	0xbf5aa7f5	-0.8541253
119	0xbf010c10	-0.5040903
120	0xbcdbf877	-0.026851876
121	0xbc8cb9bd	-0.01717841
122	0xbeb42c11	-0.3518987
123	0xbf5f71e3	-0.8728315
124	0xbf55b053	-0.83472174
125	0xbe2881c6	-0.16455755
126	0x3d798c07	0.060924556
127	0x3e46ac35	0.1940163
128	0x3c4cc13a	0.012497241
129	0xbe47d70b	-0.19515626
130	0x3e96bf40	0.29442787
131	0xbf0ef27f	-0.5583877
132	0xbf09f793	-0.53893393
133	0xbdc4168f	-0.09574615
134	0xbdb50279	-0.08838362
135	0xbe4b29d8	-0.19840181
136	0xbe188835	-0.14895709
137	0xbd33d29f	-0.043902036
138	0x3e82c9aa	0.25544482
139	0x3f0b6121	0.5444508
140	0xbf1bc7e2	-0.6085187
141	0xbe0aff67	-0.13573991
142	0xbe8409d4	-0.25788748
143	0x3b232487	0.0024893598
144	0x3dd07c25	0.10179929
145	0xbe4cd183	-0.20001797
146	0xbe9b41c6	-0.3032362
147	0x3cf26675	0.029589871
148	0xbf092e7a	-0.5358654
149	0xbe9ab033	-0.30212554
150	0xbe23c578	-0.15993297
151	0xbe24e8cf	-0.16104434
152	0x3cddd616	0.027079623
153	0xbe2dc204	-0.16968542
154	0xbe3e9361	-0.18610908
155	0xbeb93f38	-0.36181045
156	0xbedaf475	-0.4276463
157	0xbf248e9b	-0.642801
158	0xbe65b4e2	-0.22432283
159	0x3e293ce6	0.16527137
160	0xbec8e8a8	-0.39240003
161	0x3d39d31e	0.045367353
162	0x3dd57f6b	0.10424694
163	0x3e2ef923	0.17087226
164	0x3db7bbfe	0.089714035
165	0xbeabcecf	-0.3355622
166	0xbf2f5e05	-0.6850284
167	0xbf21b116	-0.63160837
168	0xbee766f0	-0.45195723
169	0xbf026535	-0.5093568
170	0xbef4b0b0	-0.47791052
171	0x3d8fea8b	0.070271574
172	0x3ea5aedc	0.3235997
173	0x3e13dc11	0.14439417
174	0x3dfd63c3	0.12372544
175	0xbe63e265	-0.22254331
176	0xbed9cbcb	-0.42538294
177	0xbfabe677	-1.3429707
178	0xc0100450	-2.2502632
179	0xbf4f4582	-0.80965436
180	0x3f3299d9	0.69766
181	0x3e176660	0.14785147
182	0x3eb983b3	0.3623329
183	0x3ddcba48	0.10777718
184	0x3f146e03	0.57980365
185	0xbdf141a2	-0.117800966
186	0xbdf69b44	-0.12041333
187	0xbdf73346	-0.120703265
188	0xbee26bc9	-0.4422286
189	0xbf019392	-0.506158
190	0xbe4fc205	-0.20288856
191	0x3e95c4e8	0.2925179
192	0xbd5d045b	-0.05395923
193	0xbe89e746	-0.2693426
194	0xbf261e94	-0.6489041
195	0xbebe5d21	-0.37180427
196	0xbf4627dd	-0.77404577
197	0xbf3d7101	-0.74000555
198	0xbf874a05	-1.0569464
199	0xbf5b18be	-0.8558463
200	0xbf22a2b0	-0.6352949
201	0x3d2a6fb2	0.041610427
202	0x3e323082	0.17401317
203	0xbe175df0	-0.14781928
204	0x3e28c136	0.16479954
205	0xbcad13b7	-0.021127565
206	0xbe1f104a	-0.15533558
207	0xbec3c6f0	-0.38237715
208	0xbf73bc1d	-0.95208913
209	0xbfcdff87	-1.6093606
210	0xbea669c6	-0.32502574
211	0x3c683162	0.01417193
212	0xbe2899c0	-0.16464901
213	0xbe9a3d28	-0.30124784
214	0xbe145df8	-0.14488971
215	0xbe3b5ad1	-0.18296362
216	0xbefdfe0d	-0.49607888
217	0xbee354fa	-0.4440077
218	0xbf92e536	-1.14762
219	0xbeb76ea1	-0.3582659
220	0xbcb0067a	-0.021487463
221	0xbe2613a2	-0.16218427
222	0xbe6fd242	-0.2342005
223	0xbe4fac3b	-0.20280544
224	0xbe297259	-0.16547526
225	0xbf1e7026	-0.61889875
226	0xbf383f11	-0.7197123
227	0xbe72b987	-0.23703586
228	0xbd5db5c8	-0.05412844
229	0xbdbf2f7f	-0.09335231
230	0xbe3d84a4	-0.1850763
231	0xbeb53a4c	-0.3539604
232	0xbf3d7fd0	-0.7402315
233	0xbf44983c	-0.7679479
234	0x3e618eda	0.2202715
235	0xbe8dc5c5	-0.2768995
236	0xbe8be252	-0.27321106
237	0xbcaa345c	-0.02077692
238	0x3d038c87	0.03211644
239	0xbe89292e	-0.2678923
240	0xbe453b40	-0.19260883
241	0x3c5623e4	0.01307008
242	0xbe717bfd	-0.23582454
243	0x3d295e63	0.04134978
244	0x3e94760e	0.2899632
245	0xbe4a567b	-0.19759552
246	0xbf0c2531	-0.5474425
247	0xbf0b273e	-0.54356754
248	0xbf06a642	-0.5259744
249	0xbf36ad8d	-0.7135857
250	0xbe6148ff	-0.22000502
251	0xbe33091e	-0.17483947
252	0x3e0b3fc5	0.13598545
253	0xbf072203	-0.5278627
254	0x3e6ba85e	0.23013446
255	0xbec0e2cd	-0.37673035

fc1.bias f4 [24]
0	0x3db6c42b	0.08924135
1	0x3fc689d3	1.5510811
2	0x3f68879b	0.9083192
3	0x3f1c715a	0.6111046
4	0x3ff0d216	1.8814113
5	0x3fb083f6	1.3790271
6	0x3ccdc298	0.025117204
7	0x3f61e4b0	0.88239574
8	0x3fb5bd2c	1.4198356
9	0x3fdb357b	1.7125696
10	0x3fa98378	1.3243246
11	0x3faf4c64	1.3695188
12	0x3e8da8fd	0.2766799
13	0x3f5b3959	0.8563438
14	0xbe09adb3	-0.13445167
15	0x3fb83b85	1.4393164
16	0x3f90a2cc	1.1299682
17	0x3f397708	0.7244725
18	0x3f8319fe	1.0242307
19	0x3fdc2192	1.7197745
20	0x3feea2f3	1.8643478
21	0x3d9fb4cf	0.077981584
22	0x3f7c0998	0.9845214
23	0x3dbcad27	0.09212714

fc2.weight f4 [24, 24]
0	0x3d8ae4dc	0.06781933
1	0x3cd1c598	0.025606915
2	0xbda78d84	-0.08181289
3	0xbe59962b	-0.21248691
4	0xbda450d3	-0.080232285
5	0x3c939ac5	0.018018136
6	0x3c881c2e	0.016615
7	0xbd79f975	-0.061028916
8	0x3da8bf29	0.08239586
9	0x3d0900ca	0.033448018
10	0xbdfe33fe	-0.124122605
11	0x3d357039	0.044296477
12	0xbe0a043b	-0.13478176
13	0x3d523589	0.051320586
14	0xbe02cb3a	-0.12772837
15	0x3c9239a3	0.017849749
16	0xbd6dc5ea	-0.058050074
17	0xbc54b6b6	-0.012983015
18	0xbe3c3ec9	-0.18383326
19	0xbe1d1636	-0.15340504
20	0xbe4acd71	-0.19804932
21	0xbdecf736	-0.11570589
22	0xbe1bc7e2	-0.15212968
23	0xbe00fde3	-0.1259685
24	0x3d0f20ef	0.034943517
25	0xbb075cff	-0.0020654795
26	0xbee8b56f	-0.45450923
27	0xbe56f485	-0.20991714
28	0xbea8d4e5	-0.32974926
29	0xbd73c023	-0.059509408
30	0x3d9c756c	0.07639584
31	0xbe275e2c	-0.16344517
32	0xbe3af2c6	-0.18256673
33	0xbdd3bc64	-0.10338667
34	0xbddb900d	-0.10720835
35	0x3d7d22fe	0.06180095
36	0xbe2c988a	-0.16855064
37	0xbe294830	-0.16531444
38	0x3ddbe98c	0.10737905
39	0xbdb18152	-0.08667244
40	0x3e4f7ecf	0.20263217
41	0xbe560394	-0.20899802
42	0xbdd860b1	-0.105653174
43	0x3ecc3613	0.39885005
44	0x3d11e52f	0.035618957
45	0x3da2d55c	0.07950851
46	0xbe4fd3f7	-0.20295702
47	0xbcb33cb3	-0.02187953
48	0x3ec4abe8	0.38412404
49	0x3f68e60f	0.9097604
50	0xbfe7066b	-1.8048834
51	0x3f1c0641	0.6094704
52	0xbf2d5046	-0.6770061
53	0x3f3bfb49	0.73430306
54	0x3d84f4bc	0.06491992
55	0x3f1d6ba3	0.61492366
56	0x3ed0a7e1	0.4075308
57	0xbf04b5c7	-0.5183987
58	0x3f082200	0.5317688
59	0x3f8a8c1e	1.082401
60	0x3d91788c	0.071030706
61	0x3ef84967	0.48493502
62	0xbe0d851a	-0.13820305
63	0x3f3ee838	0.7457309
64	0x3f7b0254	0.9805043
65	0x3f4b91b0	0.79519176
66	0x3f65794d	0.89638215
67	0x3f8e994a	1.114053
68	0xbf9ca793	-1.223864
69	0xbd9825a7	-0.074290566
70	0xbd353df1	-0.044248525
71	0x3dbab218	0.09116
72	0xbc81ffcb	-0.015869042
73	0x3f04ab9a	0.51824343
74	0xbefe3981	-0.49653247
75	0xbe85c220	-0.26124668
76	0x3e7ffec7	0.24999534
77	0x3e968d34	0.29404604
78	0x3d4dc155	0.050233204
79	0x3e5ffadb	0.21873038
80	0x3d37f5b3	0.04491205
81	0x3ebc301a	0.3675545
82	0x3ed3e5a6	0.41386145
83	0x3e4bb03f	0.19891451
84	0x3c796fe4	0.015224431
85	0xbfa8ee95	-1.319781
86	0xbdd9c15f	-0.10632586
87	0x3bd41046	0.0064716665
88	0x3eb120bd	0.3459529
89	0x3e6ef535	0.23335727
90	0xbd81d100	-0.06338692
91	0x3e1891be	0.14899346
92	0xbebb7bae	-0.36617798
93	0xbd66077a	-0.056159474
94	0x3e809635	0.251146
95	0xbd97732a	-0.07395013
96	0x3e377e7a	0.1791934
97	0x3f3090f0	0.6897116
98	0xbff1108b	-1.8833174
99	0x3f3714a1	0.7151585
100	0xbecae573	-0.3962818
101	0x3f534534	0.8252747
102	0x3eb0f704	0.34563458
103	0x3f003027	0.50073475
104	0x3eee6f27	0.46569178
105	0xbf1ff17e	-0.6247786
106	0x3ed10837	0.4082658
107	0x3f8e42af	1.11141
108	0xbbc504c0	-0.006012529
109	0x3ea4fea9	0.3222554
110	0xbd42b801	-0.04753876
111	0x3f4ac4a8	0.79206324
112	0x3f0a0c79	0.5392528
113	0x3f8002d5	1.0000864
114	0x3f9917b9	1.1960365
115	0x3f59bc93	0.85053366
116	0xbf94d4d7	-1.1627454
117	0x3de25c15	0.110527195
118	0xbe037b49	-0.12839998
119	0x3dc3afa8	0.09554988
120	0xbd94b952	-0.072619095
121	0x3edd09c4	0.43171513
122	0xbfb0c711	-1.381075
123	0x3f2ff42e	0.68731964
124	0xbe53e1cb	-0.20691602
125	0x3f571fcb	0.8403289
126	0x3eb1683b	0.34649834
127	0x3fa6d86b	1.3034796
128	0x3e4605c3	0.19338135
129	0xbf565927	-0.83729786
130	0x3f15b56d	0.5847996
131	0x3f6eccef	0.93281454
132	0xbdc7d06d	-0.09756551
133	0x3e4567b0	0.19277835
134	0xbce7e7e1	-0.02830881
135	0x3f70cb91	0.9406062
136	0x3f3229c0	0.69594955
137	0x3ead26ec	0.33818758
138	0x3f66aad9	0.9010444
139	0x3f83d9d9	1.0300857
140	0xbfa5f951	-1.296671
141	0xbdf94592	-0.121714726
142	0xbe3cf5c5	-0.18453129
143	0x3ee071d0	0.43836832
144	0x3d11b900	0.03557682
145	0xbdd0dc2a	-0.10198243
146	0xbe07dd97	-0.13268124
147	0xbd8d7f5d	-0.06909058
148	0xbe0ab686	-0.1354619
149	0xbd4c06fd	-0.049811352
150	0x3dc5bb43	0.09654858
151	0xbdf0545d	-0.11734841
152	0xbeb91f94	-0.36156905
153	0xbd8ae89a	-0.067826465
154	0xbf18d840	-0.5970497
155	0xbe375a5f	-0.17905568
156	0xbdce7f8f	-0.100829236
157	0xbdad707d	-0.08468721
158	0x3e00cad5	0.12577374
159	0xbd6ea737	-0.058264937
160	0xbf1419a1	-0.57851607
161	0xbe8d02d9	-0.27541235
162	0xbe660d48	-0.22466004
163	0xbd026d1c	-0.031842336
164	0xbd330211	-0.043703143
165	0x3da2e5de	0.07954
166	0x3de685b9	0.11255974
167	0xbcde3329	-0.027124004
168	0xbeda4212	-0.42628533
169	0xbe23a801	-0.15982057
170	0xbf5f6654	-0.87265515
171	0x3e271d31	0.1631973
172	0x3f081b10	0.53166294
173	0x3f116945	0.56801254
174	0x3eb2a452	0.3489099
175	0x3eac61c9	0.33668354
176	0x3e85d6a9	0.26140335
177	0x3cce68b9	0.02519642
178	0x3ee629ca	0.44953758
179	0x3f016f26	0.50560224
180	0x3f629892	0.88514054
181	0xbd4c8e81	-0.04994059
182	0x3d1a338a	0.037646808
183	0x3eb897a3	0.3605319
184	0x3e9e0c59	0.30868796
185	0x3eced714	0.40398467
186	0x3eb2fd56	0.34958905
187	0x3d26c94d	0.04071932
188	0xbf5c681e	-0.8609637
189	0x3d3f42a9	0.04669443
190	0xbdff3b15	-0.12462441
191	0x3ef12765	0.47100368
192	0x3d9ec50c	0.077524275
193	0xbe80521f	-0.25062653
194	0xbe010db9	-0.12602891
195	0xbdcf0f2f	-0.10110318
196	0xbe2b8c75	-0.16752799
197	0xbe079261	-0.13239433
198	0x3d038a63	0.032114398
199	0x3d979450	0.07401335
200	0xbdfa80dd	-0.1223161
201	0x3b071ace	0.0020615342
202	0x3bdf1640	0.0068080723
203	0xbe633adb	-0.2219042
204	0xbd21aeb5	-0.039473254
205	0xbe84a38c	-0.25906026
206	0x3dfe1c76	0.12407772
207	0xbe8b1f69	-0.27172402
208	0x3d663a83	0.056208145
209	0xbc8685a6	-0.01642115
210	0xbe7398ae	-0.23788711
211	0xbddf5884	-0.10905555
212	0xbe0b7b23	-0.13621192
213	0xbe613213	-0.21991758
214	0xbdd71896	-0.10502736
215	0xbe157f01	-0.1459923
216	0xbe012ff7	-0.12615953
217	0xbeab7935	-0.3349091
218	0xbe702214	-0.234505
219	0xbbb1e415	-0.005428801
220	0xbd1a7497	-0.037708845
221	0x3dac2628	0.08405715
222	0xbf032af5	-0.5123742
223	0xbe17b8e0	-0.14816618
224	0xbe9134e1	-0.28360656
225	0xbb6aa31f	-0.0035802794
226	0xbe9a6347	-0.30153868
227	0xbe174394	-0.14771873
228	0xbd1e57da	-0.038658
229	0x3e3980e2	0.18115571
230	0xbe8a0955	-0.26960245
231	0xbea3a307	-0.31960317
232	0xbe8a5d52	-0.27024323
233	0xbe9b89a0	-0.30378437
234	0x3d3c9eb2	0.04604978
235	0xbe1a5054	-0.15069705
236	0xbe43bda1	-0.19115306
237	0x3dd56021	0.10418726
238	0xbee6334c	-0.4496101
239	0x3e4bed53	0.19914751
240	0xbc556db4	-0.013026644
241	0x3d431059	0.047623012
242	0xbe9d6b2d	-0.3074583
243	0xbc9d00c5	-0.019165406
244	0x3dea7d8e	0.11449729
245	0xbe4eb0b8	-0.201846
246	0xbe2a045f	-0.1660323
247	0x3e3e44a0	0.18580866
248	0xbcbf6cb9	-0.023367273
249	0xbe58ac6b	-0.21159522
250	0xbd5c702e	-0.05381792
251	0x3be47a11	0.0069725593
252	0x3e0b9e51	0.13634612
253	0xbe0dddde	-0.13854167
254	0x3e29b783	0.1657391
255	0xbd83763f	-0.06419038

fc2.bias f4 [24]
0	0xbe3e34cc	-0.18574828
1	0x3e584ac7	0.21122275
2	0x3e7c15c7	0.24617682
3	0x3e05d72e	0.13070366
4	0x3ea756fe	0.32683557
5	0x3e297e30	0.16552043
6	0xbc13b7e5	-0.009016012
7	0xbe06d731	-0.13168027
8	0xbe33e56e	-0.17567989
9	0xbe62cc64	-0.22148281
10	0xbeb76665	-0.35820308
11	0xbeb4c702	-0.3530808
12	0x3d500062	0.050781615
13	0x3ec0fb18	0.3769157
14	0xbe87877b	-0.2647055
15	0xbe882158	-0.2658794
16	0x3ee67509	0.45011166
17	0xbecbe02b	-0.39819464
18	0x3e01a5c7	0.12660895
19	0xbe727898	-0.23678815
20	0xbed6fcb2	-0.41989666
21	0x3e8d1299	0.2755325
22	0xbda7955b	-0.08182784
23	0xbd961a52	-0.07329239

fc3.weight f4 [3, 24]
0	0x3df39a64	0.11894682
1	0x3e619187	0.2202817
2	0x3f28a4b3	0.6587631
3	0xbf176d7b	-0.5915143
4	0x3f917e58	1.1366682
5	0x3f6f70cd	0.93531495
6	0xbcf64dac	-0.030066334
7	0x3f17576f	0.5911779
8	0x3c49ad4c	0.012309384
9	0x3e397953	0.18112688
10	0xbe222f79	-0.15838422
11	0x3cd39b7a	0.025830973
12	0x3f1dca25	0.61636573
13	0x3f1868a7	0.59534687
14	0x3f4881ac	0.78322864
15	0x3f1785bd	0.59188443
16	0x3f765d72	0.96236336
17	0x3c7172d5	0.014736851
18	0x3f1a34c0	0.6023674
19	0x3c564616	0.013078233
20	0x3b8d83b9	0.004318681
21	0x3f2e5db9	0.6811176
22	0x3de0cf7a	0.10977073
23	0x3da1e91e	0.07905792
24	0x3df5b19c	0.11996767
25	0x3e9fc690	0.3120618
26	0x3f215329	0.6301752
27	0xbee1ce84	-0.4410287
28	0x3f3a1fc3	0.72704715
29	0x3f3f1251	0.74637324
30	0xbd635a09	-0.055505786
31	0x3e45b26a	0.19306341
32	0xbd649017	-0.055801477
33	0x3c2a7f62	0.010406347
34	0x3c3e50da	0.011615956
35	0xbc9d2df1	-0.019186946
36	0x3ef92c93	0.4866682
37	0x3f065075	0.5246652
38	0x3f01b778	0.50670576
39	0x3f1381a5	0.57619697
40	0x3f36146b	0.71124905
41	0x3d0305ea	0.031988062
42	0x3eedb82f	0.46429583
43	0xbcc4daad	-0.024030054
44	0xbbb45910	-0.005503781
45	0x3f0f6a04	0.5602114
46	0x3df51b45	0.11968092
47	0x3e1fad9d	0.15593572
48	0x3c7b1cbe	0.015326677
49	0x3e52aa7a	0.20572844
50	0x3f2e7603	0.6814882
51	0xbe844bdb	-0.25839123
52	0x3f2aaca9	0.6666971
53	0x3f2c99ac	0.67421985
54	0x3d4aacc8	0.049481183
55	0x3d50268b	0.050818007
56	0xbd838060	-0.0642097
57	0xbde95413	-0.11392989
58	0xbdf568a6	-0.11982851
59	0x3d5fdc0b	0.05465321
60	0x3eae25b9	0.34013155
61	0x3f312aec	0.6920612
62	0x3ebd907a	0.3702429
63	0x3ecbe16b	0.39820418
64	0x3f49c481	0.78815466
65	0xbe00380f	-0.12521385
66	0x3ea51576	0.32242936
67	0xbb9caa32	-0.004781031
68	0x3d58b956	0.052911125
69	0x3f39108e	0.72290885
70	0x3df1b6eb	0.11802467
71	0x3dbe6ea3	0.09298446

fc3.bias f4 [3]
0	0xbd86ab73	-0.0657567
1	0xbd7a9210	-0.061174452
2	0xbd29a560	-0.04141748
